final_race/data/sqn/good/pyt_save/model.pt (torch_old, 178318 bytes, 12 tensors)

weight f4 [64, 256]
000000 fa 73 c7 3b b0 2d 24 3d d3 c3 37 bd 06 77 21 bd
       0.0060868235 0.040082633 -0.044864487 -0.03942015
000010 ab 86 8f bc bd f8 be 3c cb 99 aa 3b dd 60 65 3d
       -0.01752027 0.023311967 0.005206322 0.05600058
000020 17 25 71 3a 78 75 bc 3c 11 78 4f bc 24 89 c6 bb
       0.0009198947 0.023005232 -0.012662903 -0.006058829
000030 c1 0b 86 bd db c5 11 bd b1 4a 00 bd 7f ff 00 3c
       -0.06545211 -0.03558908 -0.03132123 0.007873415
000040 05 b7 9b 3c b8 f4 30 3d 39 c1 45 bd 08 8d ae bc
       0.019008169 0.043202132 -0.048279975 -0.021307483
000050 92 17 8b 3c 89 04 6c 3d d0 1b a5 bc 0c 70 5d 3d
       0.016979013 0.057621513 -0.020154864 0.054061934
000060 c0 bc 8f bc fb c6 66 3c 07 fd 46 3d 82 ab 4c bd
       -0.017546058 0.014085527 0.04858115 -0.04996825
000070 de 83 42 bd df a7 fb bb 8e ed 04 bd c3 52 7e 3d
       -0.04748904 -0.007679924 -0.032453112 0.062090646
000080 ae 17 49 bd b4 5f a5 bc 6f 1d 56 bd 23 7f 4c bd
       -0.04909485 -0.020187236 -0.052274164 -0.049925935
000090 42 57 39 bd c8 f5 7f 3d 03 22 9c 3c bf 3d 20 3d
       -0.04524923 0.062490255 0.019059187 0.039121386
0000a0 31 6e b0 bb 3f 76 bf bc 63 22 f6 3a 92 68 4b bd
       -0.0053842296 -0.023371814 0.0018778559 -0.049660273
0000b0 ac b6 5c bd 04 7b c0 bc 2d 65 ea 3c 17 6c 42 3d
       -0.053885147 -0.023496158 0.028612697 0.047466364
0000c0 77 1d 1e bd 07 61 0d 3c 27 9f ef 3c 23 35 95 3d
       -0.03860232 0.00862909 0.029250694 0.07285526
0000d0 33 b3 65 3c a2 85 9d 3c 1d 4a fe 3c 91 77 d4 bc
       0.014019775 0.01922876 0.0310412 -0.02593592
0000e0 b7 6b 52 39 97 98 17 bd 64 2c 61 bd 06 01 a9 bc
       0.00020067288 -0.037010755 -0.054973975 -0.02063037
0000f0 98 d9 85 3c 75 dc 17 3d 89 40 42 bd 05 e6 ef 3c
       0.016339108 0.03707548 -0.047424827 0.029284487
000100 d3 5b c4 3c ff bb 20 3b 2f 8d 04 bc 20 75 cc 3c
       0.023969566 0.0024526117 -0.008090301 0.024958193
000110 58 8a fa 3c 90 ad 8b 3d 7a c4 67 bd 3f 50 6d bc
       0.030583546 0.06820214 -0.05658386 -0.014484464
000120 9c a4 81 3c c7 e5 77 3d 24 54 3a 3d f1 29 83 3d
       0.015825562 0.060521867 0.0454904 0.06404484
000130 6c 5d 62 3b 36 d0 39 bd e5 4c 8c bb 6a 22 ee bc
       0.0034540547 -0.04536458 -0.0042816275 -0.029069144
000140 f0 7a 8b bd d2 ea 85 3d ad f5 11 3d e2 ac 4e bd
       -0.06810558 0.06538929 0.035634685 -0.050457843
000150 4d c5 be b9 46 f7 c8 3a 0e 20 b7 bc 8d 80 87 bc
       -0.00036386625 0.0015332482 -0.022354152 -0.01654079
000160 ef 47 48 3c 96 82 ce bc 23 9c 58 3c 0d 28 29 3d
       0.012224182 -0.025208753 0.01322082 0.04129796
000170 a3 00 12 3d 5e fb 04 3d 9f 32 91 bd 0f 0b 01 bd
       0.03564514 0.032466285 -0.07089733 -0.031504687
000180 b0 a8 b5 3c fe 26 b5 3c ab 6c 6c bd bd 5f dd bc
       0.022175163 0.02211332 -0.05772082 -0.02702319
000190 87 f1 4b 3d ae 62 51 3d 3e f6 13 bd 8e bc e0 bb
       0.049790885 0.0511195 -0.036123507 -0.006858415
0001a0 0d 2d 8c bd cd 14 ff 3b 82 83 64 bd af bc 21 bd
       -0.0684453 0.007784462 -0.055789478 -0.039486583
0001b0 48 3b 4b bc 38 47 96 3c 77 31 0f bd f6 41 3e 3d
       -0.0124042705 0.018344507 -0.034959283 0.046449624
0001c0 40 75 42 bd ae 7a 87 3d c5 cf 07 3d 4a 41 30 bd
       -0.0474751 0.06615196 0.03315713 -0.043031015
0001d0 bd e7 ce bc f9 46 4d 3c 15 5c f8 b9 9d 5e ab 3b
       -0.025256986 0.012529128 -0.00047370853 0.0052297846
0001e0 ca e2 70 3c 32 3d c7 bb f0 e2 1e bd 2e 52 ae 3c
       0.014702508 -0.006080293 -0.038790643 0.02127942
0001f0 ca 75 8b bd ba 15 39 bd 13 a1 b7 bc 48 6e 18 bd
       -0.06809576 -0.045186736 -0.022415673 -0.037214547
000200 e9 7a e9 bc 66 01 6d bd a5 c7 a2 bc b4 4b de 3b
       -0.028500991 -0.05786266 -0.019870589 0.006783927
000210 9f 68 3f bd 7d 15 17 bc 68 e5 1d 3d c9 b6 4e bc
       -0.046730634 -0.009221432 0.038548857 -0.012616822
000220 68 b1 8e bb 06 25 3c bc b8 10 d9 3b 37 19 0a 3d
       -0.0043546446 -0.011483436 0.0066243075 0.033715453
000230 5e fe 59 3d ae 12 0a 3d c7 f8 56 3d 8e 5e 3a bc
       0.0532211 0.03370922 0.052483346 -0.011375083
000240 33 d8 80 bd 1c 15 15 bd 3a 0e 16 3d 4d 53 cf bb
       -0.06291237 -0.036397085 0.03663466 -0.006327069
000250 7a b2 17 bd 0b a1 5c bd e5 e7 83 bd b5 4c 70 bd
       -0.037035443 -0.05386452 -0.06440715 -0.058666904
000260 ee 93 9a bc f8 0e e6 3c a1 dc e3 3c 12 af 87 bd
       -0.018869366 0.02808331 0.027815165 -0.06625189
000270 9e 99 07 3d 17 69 60 bd 10 a5 9b bc 33 01 ff bc
       0.033105485 -0.05478772 -0.018999606 -0.031128502
000280 6a 23 91 bc f7 0b 93 bc 98 24 7c bd 22 76 73 bd
       -0.017717082 -0.017950041 -0.061558336 -0.059438832
000290 02 37 7a bc 77 79 99 bb ac 85 0a bd 16 6a 94 3c
       -0.015271904 -0.004683669 -0.033818886 0.018116992
0002a0 cf 0f 7d bd ce b1 1f bc 0b bc 4e 3d 79 a2 f5 bc
       -0.061782654 -0.009746982 0.0504723 -0.0299847
0002b0 4d b0 53 3d 58 76 92 3c 90 7a 7a bd 92 85 0e 3d
       0.051681805 0.017878696 -0.06115204 0.03479535
0002c0 6e 3e 43 bc cd 8c 05 bd 99 5b 39 3d d3 39 62 bd
       -0.01191674 -0.03260498 0.04525337 -0.055230927
0002d0 71 0f 18 3b 1a 21 8f bc 72 1a 25 3d 59 01 57 3c
       0.0023202563 -0.017471839 0.040308423 0.01312288
0002e0 24 14 d2 3c 97 e0 90 3c 2a b1 9f bc d6 3e 90 bc
       0.02564437 0.017685218 -0.019493658 -0.017608088
0002f0 d1 70 66 bd f0 78 ee 3c 2d cb 39 3d 62 b2 1d 3d
       -0.056259934 0.029110402 0.04535978 0.038500197
000300 70 aa 3f bd 75 35 a8 38 04 13 39 bd fe 88 11 bd
       -0.0467934 8.0208214e-05 -0.04518415 -0.035531037
000310 f8 d8 19 bd 9d 9f a5 3c 12 04 1f bd ec c1 40 bb
       -0.037560433 0.020217711 -0.03882224 -0.0029412461
000320 ee c6 36 3b 81 ad 25 3d 43 4a 3f bd 8d 85 2d bd
       0.0027889567 0.04044867 -0.04670168 -0.042363692
000330 17 5b 1e bd f6 79 29 3d 1a ef c6 bc 3a 7d 50 3d
       -0.03866109 0.041376077 -0.024283934 0.050900675
000340 30 b2 9e 3c 88 8a 99 3b cd ee 7c bb b9 04 81 bc
       0.019372076 0.0046857037 -0.0038594485 -0.015749322
000350 df ae e5 3b 0d 76 77 bc 6c 09 3f bb 34 2e b4 3b
       0.0070093716 -0.015103829 -0.0029149903 0.005498672
000360 2f 4c 50 bd 28 3b 0e bd 6c a7 4b 3d f9 d1 52 bd
       -0.050853904 -0.034724385 0.049720213 -0.051469777
000370 3d ae 0b bc 54 b4 6c 3d bf 2d e4 3c b5 da 65 bb
       -0.008525428 0.05778916 0.027853845 -0.0035072987
000380 a1 1f 48 bd d8 2c d2 3c dc db 1e bd 36 4f c0 bc
       -0.04885829 0.025656149 -0.038783893 -0.02347527
000390 02 e7 79 bc 0c 4f 75 bc e9 56 ca 3b 86 a8 3c 3d
       -0.01525283 -0.0149724595 0.0061749113 0.046059154
0003a0 cf e3 62 3c 97 88 4c 3d 78 cd ef 3c bf 01 2c bd
       0.013848259 0.04993495 0.02927278 -0.041993853
0003b0 ab 7f 07 3d 83 2f 2a bd 21 02 d7 bc 86 84 4b 3c
       0.033080738 -0.041549217 -0.026246132 0.012421733
0003c0 09 4b 71 3c fb a5 2b 3d 66 df bf bc a1 38 b2 ba
       0.014727362 0.04190634 -0.023421954 -0.0013597199
0003d0 63 97 d7 3c 16 ff 6f bd a3 98 30 3d 9a a2 71 bd
       0.026317304 -0.05859288 0.043114316 -0.05899296
0003e0 08 8d 91 bb 8d 25 5b bc 1f 8b 11 bd 60 74 b0 3b
       -0.004441861 -0.013375652 -0.035533067 0.0053849667
0003f0 7a ef 3f 3d 51 83 c3 bc d2 d7 2a bd 45 15 e5 bc
       0.046859242 -0.023866327 -0.04170973 -0.027964244

bias f4 [64]
000000 fe ec eb bc 40 f8 8f bb d4 1d 41 3c 61 ca ae bc
       -0.02879953 -0.0043936074 0.011786897 -0.021336736
000010 3f ac 63 3d 7b 69 25 3f 3b ec 5a bd dd d5 ca bc
       0.05558419 0.64614075 -0.053447943 -0.024760181
000020 7c 31 4c bd 29 92 83 bd 5d 9b e8 3d 93 f4 55 bc
       -0.04985188 -0.06424362 0.11357758 -0.013058799
000030 89 24 9d bd 3e 05 d7 3b 23 c1 1d bd 28 da b8 3c
       -0.07672984 0.006561904 -0.038514268 0.022564963
000040 41 44 4b bc 0f 60 1b bd 22 ee 54 bd 14 13 8a bd
       -0.01240641 -0.037933405 -0.051984914 -0.0674192
000050 64 8b 58 3e e7 ab 1e bc 2c d3 07 bd 4a 93 fb bb
       0.21146923 -0.009684539 -0.033160374 -0.0076774703
000060 f0 91 c6 bc a4 1b 9e bd a1 e4 56 3b 65 03 12 bd
       -0.02423951 -0.07720116 0.0032790082 -0.03564777
000070 29 f0 ed 3c 6e 7b 32 bd 20 c4 e4 3b 46 de f1 bc
       0.029045181 -0.043574743 0.0069813877 -0.029524934
000080 27 ae e9 3e 69 db 38 3b 7e 83 08 3f 44 82 24 3d
       0.4564068 0.002820695 0.5332564 0.040163293
000090 1f 8c 5b 3c 08 df 56 bd 60 6f 77 bd 5d 8e 25 bd
       0.013400107 -0.052458793 -0.06040895 -0.04041897
0000a0 b6 30 76 bd 9a ef 41 3d 98 3c 2f bd c4 ac 80 3c
       -0.060105048 0.047347642 -0.042782396 0.015707381
0000b0 54 45 bc bc e2 d0 5e bd f9 85 67 bd e1 02 07 3d
       -0.022982277 -0.054398425 -0.05652425 0.03296173
0000c0 a8 76 6b bd 13 0d 36 bd dc 55 22 3e 1c 1b 5f bd
       -0.057486206 -0.044446062 0.15853065 -0.054469213
0000d0 59 83 d5 3c 73 80 55 bc 28 9c d6 3b e6 3b 22 bc
       0.026063608 -0.013031113 0.006549377 -0.009901976
0000e0 54 c5 cc bc 75 19 77 bb 4f e2 a7 3c b3 b5 84 bd
       -0.024996437 -0.0037704383 0.020493655 -0.06479969
0000f0 3d ea 86 bc f3 b3 30 3f 51 d4 01 bd 20 23 aa bd
       -0.016469115 0.6902458 -0.03169662 -0.08307481

weight f4 [64, 64]
000000 4c 35 c6 3d 78 47 48 3d e6 ec 82 3d 9b 0b 37 bd
       0.09678134 0.048896283 0.06392841 -0.044688802
000010 83 5f c6 3c 17 48 11 3f 8f 57 ee 3c 09 0c fe bd
       0.024215465 0.56750625 0.029094486 -0.12404639
000020 f7 e8 17 3d ed 3b d0 3d a7 fa a3 3e 36 e4 b0 3d
       0.037087407 0.1016768 0.3202717 0.08637278
000030 06 68 1a 3e 49 e2 a8 bd 37 bf a5 bc cf 3c 4c 3d
       0.15078744 -0.082462855 -0.02023278 0.04986268
000040 7c 38 0d bd ba 0e e0 bd 07 75 f8 bd 95 f0 ce 3d
       -0.034477696 -0.10940309 -0.12131696 0.10104481
000050 39 49 79 3f 39 94 ce 3d 60 33 bc bd d1 50 48 3b
       0.97377354 0.10086865 -0.091894865 0.0030565748
000060 e1 30 d1 bd 6e a2 b5 3d 21 59 7d bd 3e 8c 80 bd
       -0.10214401 0.08868872 -0.061852578 -0.06276749
000070 3b 4f af bd 7c b4 92 bd a7 6c 10 bc 41 b6 03 3c
       -0.08560034 -0.07163331 -0.008814967 0.008039058
000080 23 03 e8 3b b9 f6 9a 3d a8 b8 17 3e 35 74 00 3d
       0.007080452 0.0756659 0.14816535 0.031360824
000090 6e ea 53 bd 5e 66 f2 bd ce 1e db bc 14 41 41 3d
       -0.05173724 -0.11835931 -0.026748087 0.047181204
0000a0 9d 84 50 3d 86 bd dc 3b 03 68 d6 bd 10 ab 96 bd
       0.05090772 0.00673646 -0.104690574 -0.07356846
0000b0 23 a4 ab 3c 01 1e fe 3d aa a5 10 bd d6 3c 8b bd
       0.02095229 0.124080665 -0.03531424 -0.06798713
0000c0 9e 20 b0 3d 04 cf a7 3b 13 a3 bf bc 88 ee ae 3c
       0.08599971 0.0051211137 -0.02339319 0.021353975
0000d0 42 2a 8e 3d cc 1b 55 3d cb 32 97 bd ed 7b 56 3d
       0.06941654 0.052028462 -0.07382735 0.05236428
0000e0 b1 d7 6e 3d 68 83 a7 3d 00 e9 5b bd 72 3d c1 3d
       0.058311168 0.08179361 -0.053689003 0.09435548
0000f0 8b 28 7a 3c b4 53 34 bd 10 b2 3f 3d 68 5d 60 bd
       0.015268455 -0.044025138 0.046800673 -0.05477658
000100 3f 84 a3 bd 97 19 01 be a5 46 c8 3d 5c 73 d0 3d
       -0.07984208 -0.12607418 0.097790994 0.10178253
000110 96 9a 82 bd a7 24 10 bd 6d b6 aa 3d e3 5a 00 be
       -0.06377141 -0.035191204 0.08335576 -0.1253467
000120 ff 7f d6 3b 27 4a b6 3c 62 ff c2 bd 7e 90 4a bd
       0.00654602 0.022252155 -0.09521367 -0.049454205
000130 4a 57 37 3d 2e 43 95 3d 26 90 c4 bb 21 f1 b1 3d
       0.04476098 0.07288204 -0.005998629 0.0868857
000140 f2 77 86 3d a3 39 46 bd 64 63 9b bd 1f d3 a0 3d
       0.065658465 -0.04839481 -0.07587317 0.07852768
000150 4d 70 42 bd c6 55 8d 3d d8 09 cf 3c c1 17 f4 bc
       -0.04747038 0.069011256 0.025273249 -0.029796483
000160 0e 09 55 3d a4 c9 a6 bd ba 98 87 3b ed d3 5e 3d
       0.05201059 -0.08143929 0.0041380795 0.054401327
000170 b0 c6 a8 bd 7f 56 ce 3d 60 52 8c bc 5a ad b9 bd
       -0.08241022 0.100750916 -0.017129123 -0.09066267
000180 ee 2f 5b bd cb ae 93 bd 51 c0 0f be 89 71 1d bc
       -0.053512506 -0.072110735 -0.14038207 -0.009609588
000190 5d e3 2a 3d d8 08 e3 3d ca e7 05 bb b9 13 d8 3d
       0.041720737 0.11085671 -0.0020432347 0.10550637
0001a0 fa 1e e7 3d e3 e1 25 bd e1 63 74 bc 9c 94 e6 bd
       0.11285205 -0.040498625 -0.014916391 -0.11258814
0001b0 75 ae 17 bd e7 4d a2 3d 00 aa 24 bc 2a 95 42 bc
       -0.03703161 0.07925015 -0.010050297 -0.011876384
0001c0 aa 2a 46 bd 32 41 8d 3d f2 af 09 3c 1f a8 9a bd
       -0.04838053 0.06897201 0.008403765 -0.07551598
0001d0 6e d0 85 3d da cc 96 bd 86 77 92 3d ea 45 82 3b
       0.065338954 -0.07363291 0.071517035 0.0039756196
0001e0 73 87 35 bd a0 c0 a6 3d 56 86 cf bd 53 17 72 3d
       -0.044318628 0.08142209 -0.101330444 0.059104275
0001f0 d2 f9 02 b8 8e 7a cd bd bf c7 bf bd fb 51 95 bd
       -3.122708e-05 -0.10033141 -0.093642704 -0.07291027
000200 dd 63 30 b7 93 2b 5f 3c 3e 4b 01 3b 52 64 e0 bc
       -1.0513669e-05 0.013621229 0.0019728686 -0.027391586
000210 d5 b5 fd bc cb 98 1b 3e 3c 1b bd 3d f0 1a 00 bc
       -0.030970493 0.15195005 0.0923371 -0.007818922
000220 6b dd bc bd 57 61 b0 bc 02 8e 45 be d2 07 23 3d
       -0.092219196 -0.02153079 -0.19292453 0.03980238
000230 f4 95 a5 bd e0 21 3b 3d 4f 0e 55 bc 7f fd fe 3d
       -0.08085242 0.045686603 -0.0130039 0.12450694
000240 b8 af 81 bd 8d 5f aa bd 5c c9 35 3c 31 c7 5f 3d
       -0.06332344 -0.08319006 0.011095371 0.054633323
000250 f9 1a 46 bf 21 41 c8 bd cc 32 96 3d 72 e6 d3 3d
       -0.77384907 -0.09778047 0.073339075 0.10346688
000260 b3 69 a3 3d 98 b7 bb 3d 24 7e 6e 3d 9c 46 ca 3d
       0.07979145 0.09165877 0.058225766 0.09876749
000270 62 7c 25 3d e3 a0 c2 bd a9 17 8a bd cc ca a3 3d
       0.040401824 -0.09503343 -0.06742794 0.07997665
000280 59 a0 f3 bd a5 4e 88 3d af de 29 3e b0 bc a0 3d
       -0.11895818 0.06655625 0.16588853 0.07848489
000290 62 b0 cf bd 2b 76 45 bd 1b 9d d4 3d 37 1d 97 3c
       -0.10141064 -0.048208397 0.10381528 0.018446548
0002a0 7d 00 d2 3d af f4 9b 3d f7 bb e7 bd 26 0c bf 3c
       0.102539994 0.07615029 -0.11315148 0.023321223
0002b0 2c 3a e2 3c 5d f0 00 ba 17 9a a9 3d c8 ac a2 bd
       0.02761563 -0.00049186294 0.082813434 -0.07943112
0002c0 0c dc 10 3e a2 1b bf 3d c5 bd 84 bc cc 38 af 3d
       0.14146441 0.093314424 -0.01620377 0.08555755
0002d0 3b 32 6d 3c 82 13 a3 bd 58 d2 b7 bd 40 aa e4 3d
       0.014477308 -0.07962705 -0.08975667 0.11165285
0002e0 8b e1 d4 3c dd d6 88 3b e0 e9 78 3c 30 ed 85 3d
       0.025986454 0.0041760043 0.015192479 0.065393806
0002f0 a9 29 2d bd 1b 19 4e bd db 3d 94 bd e2 29 8a 3d
       -0.04227606 -0.05031691 -0.072383605 0.0674627
000300 03 e7 f7 3d 9b a4 8c 3d 19 76 35 bc 0d 5a ac 3d
       0.12104609 0.068673335 -0.01107552 0.08415613
000310 05 e4 ea 3d 31 67 ea bd 82 73 d0 bd 47 a3 e4 bd
       0.114692725 -0.114454634 -0.10178281 -0.11163955
000320 1d fc 56 bd 6e 1e b3 bd 2a 0f 0d bd 12 a1 eb bc
       -0.052486528 -0.087460384 -0.03443829 -0.028763328
000330 f9 37 c6 bd dc aa a0 3d ae 93 d0 3d d2 c1 e1 3d
       -0.09678645 0.07845089 0.10184418 0.110232964
000340 1a c4 54 3d 60 bd 28 3d ff 88 ca bd bb 20 07 38
       0.05194483 0.041196227 -0.09889411 3.221699e-05
000350 a4 d7 86 b9 6e 9b bf 3c c5 18 96 3d b4 92 ec 3d
       -0.00025719136 0.023389544 0.07328943 0.11551419
000360 1b 1b 73 3c 70 35 2f bd d4 4b e4 3d 06 a8 f5 bd
       0.014838005 -0.04277557 0.111472756 -0.119949386
000370 eb c3 48 bb 12 f0 af 3c 96 e8 b8 3b 18 18 e0 bd
       -0.0030634354 0.02147678 0.005642961 -0.109420955
000380 c6 c4 a3 bd 1f 14 e6 3d 6b f6 92 bd f0 51 ea 3c
       -0.07996516 0.112343065 -0.07175907 0.028603524
000390 61 f3 26 3d 4c 6d 43 3d d2 83 a5 3d 14 85 2e 3d
       0.040759448 0.047711655 0.08081783 0.042607382
0003a0 58 58 b7 bc c3 0c b0 bc 7c f7 9c bd 8d f1 9e 3d
       -0.022380993 -0.02149046 -0.076643914 0.07760916
0003b0 fd e1 f1 3d 66 5e f3 3d c1 03 88 bd 95 fc 23 3d
       0.11810682 0.118832394 -0.06641341 0.040035803
0003c0 a8 9e 91 bd e0 c7 f3 bd 7c 9f 78 3d ca c1 45 3d
       -0.071103394 -0.119033575 0.06069897 0.048280515
0003d0 f8 94 d4 bd 69 7c e2 3c 7f 74 ea 3d 72 c9 3f bc
       -0.10379976 0.027647214 0.11448001 -0.011705743
0003e0 6b 72 c9 3c 58 00 4c 3d fe d8 5f 3d 46 64 93 3c
       0.024590692 0.049805015 0.0546503 0.01799215
0003f0 d6 0d f1 3c 61 a2 84 bd 03 0e 4a 3d 35 ec db bd
       0.029425543 -0.06476284 0.04932977 -0.10738412

bias f4 [64]
000000 4c fc b8 3f bb 8d fd bd e7 63 bd 3f a4 23 06 be
       1.4451995 -0.123805486 1.4796113 -0.13099533
000010 8a e6 60 be d2 af 8e bd 91 08 47 bd 74 7f d5 bd
       -0.21962944 -0.06967129 -0.048592154 -0.104247004
000020 78 53 4b 3f a5 a2 51 40 a1 9b 8f bf 3c af 54 bc
       0.7942424 3.275552 -1.1219369 -0.012981232
000030 6c b1 0f bf be d5 90 3f 76 b1 18 bd eb 2d 95 bd
       -0.561301 1.1315229 -0.037278615 -0.07284149
000040 98 06 b0 3f 42 2b a1 3f b4 75 3b be 89 31 2b 3f
       1.3752012 1.2591326 -0.18306619 0.6687246
000050 db 35 e0 bc ac 11 6e 3f 4d db c3 3f 0c 9a 09 3f
       -0.02736943 0.92995715 1.53013 0.5375068
000060 69 18 da 3c 20 4e c4 bd 4c eb 05 3e dd dd 2c 3f
       0.026622968 -0.09585214 0.1307804 0.67526037
000070 03 bf 2d 3f cf 33 3a be df 70 fc bc f5 14 6d 3f
       0.67869586 -0.18183826 -0.03081554 0.926101
000080 04 4b 86 3f 05 b5 cc be b5 68 11 be a5 99 03 be
       1.0491643 -0.39981857 -0.14200099 -0.1285158
000090 74 bb a1 bd 9f e7 67 3f 32 54 21 3e d1 eb 7a bd
       -0.07897082 0.905878 0.15754774 -0.06126005
0000a0 c9 20 5a 3f b3 db 7f bd ad ff 04 3e f3 37 8a be
       0.85206276 -0.06246538 0.12988158 -0.2699581
0000b0 a2 13 67 3f d6 53 27 bf b7 14 bb bd 39 85 89 bd
       0.9026433 -0.653623 -0.091348104 -0.06714863
0000c0 2f fb c1 3e bb 87 b0 3f a3 a7 4e 3f 0c 64 1e 3f
       0.3788695 1.3791422 0.80724543 0.6187141
0000d0 27 7a 01 3f fe 88 50 3f 63 30 1c be 02 e4 32 be
       0.50577015 0.81459033 -0.15252833 -0.1746979
0000e0 7c fa 84 3f c7 62 b1 bf 2d b8 41 bd 99 29 5a be
       1.0388942 -1.385827 -0.047294784 -0.21304931
0000f0 42 e7 99 3f c2 52 09 be e1 59 71 bd 7c a5 9d bd
       1.2023699 -0.13410476 -0.058923606 -0.07697579

weight f4 [17, 64]
000000 c1 95 c3 be 6d 99 bd bd b4 f5 7b 3f ed 86 b8 3d
       -0.3820019 -0.09257779 0.9842179 0.0901011
000010 e0 70 ba 3c 68 17 a5 bc 70 ed af bd b9 47 a5 bc
       0.022758901 -0.020152763 -0.085902095 -0.020175802
000020 95 4b 22 bf ff 15 d8 bf 72 7c 90 3f bf d0 a2 3e
       -0.6339658 -1.6881713 1.1287978 0.31799886
000030 38 af fe 3e ea bd 51 3f 21 d0 50 be ff 0f 87 39
       0.49743056 0.8193041 -0.20391895 0.00025761125
000040 78 ea 84 3f ba 9a 2d bf f5 5f ed bc f8 c2 55 bf
       1.0384054 -0.6781422 -0.02897642 -0.83500624
000050 74 ce c7 bc 27 bd 49 bf 38 25 29 bf b8 4b d6 bf
       -0.024390437 -0.7880425 -0.66072416 -1.6741858
000060 73 b5 bc bf b1 f0 87 bd 13 8b 24 bf 2c 7e 12 be
       -1.4742874 -0.06637705 -0.6427471 -0.14305943
000070 99 9a a5 bf 68 96 b6 3d 69 c5 82 3f 88 96 40 bf
       -1.2937804 0.089154065 1.0216495 -0.7522969
000080 e4 70 2b bf 41 47 db 3e ad 66 fa 3d 3a f1 f4 3d
       -0.6696913 0.428278 0.12226615 0.11960073
000090 49 3b 7c bd ea 81 96 3f 40 d2 7e 3f 62 cd bf bd
       -0.061579976 1.1758397 0.99539566 -0.093653455
0000a0 e3 68 ee bf f3 2a 86 bd 46 b2 83 3f b8 dc bc 3e
       -1.8625759 -0.06551161 1.028878 0.36887145
0000b0 a5 99 30 bf f8 53 84 3f 20 94 7b 3d 3a eb 07 bd
       -0.6898444 1.0338125 0.06142056 -0.033183314
0000c0 e9 a2 f1 bf ad 86 5c bf c4 aa 25 bf 09 32 39 bf
       -1.8877841 -0.86143 -0.6471369 -0.7234197
0000d0 0d 6e e7 be b2 d0 3a bf 66 bb b6 bd 49 9d 66 bd
       -0.4520115 -0.72974694 -0.08922462 -0.056302343
0000e0 17 38 3c bf 9d 06 0b bf 40 0e ab 3d 71 56 17 be
       -0.73523086 -0.54306966 0.08352327 -0.14779069
0000f0 47 06 ff 3f 15 0b a1 bd 47 b7 84 3d d0 3f 98 3d
       1.9923791 -0.07863442 0.0648027 0.07434046
000100 a3 ec 0c bf 5b 31 5c 3d ea 8e a4 be 82 c9 1d 3d
       -0.5504858 0.053758007 -0.32140285 0.03852225
000110 cd b5 c3 3d 60 d3 dc bc ad 2d a2 3d 6b e1 91 bd
       0.0955616 -0.02695626 0.07918868 -0.07123073
000120 2b 6f b9 3c cb 49 d2 bf 62 ea e4 3e 51 a9 25 3e
       0.022636017 -1.642877 0.4471007 0.1617787
000130 42 4a 61 be e8 ee 69 3d 7c c0 63 bc 82 d4 fc bc
       -0.22000983 0.057112604 -0.013900872 -0.03086305
000140 15 30 e2 bf 95 bf 15 be ab d6 ad bd 33 80 ae bc
       -1.7670923 -0.14623864 -0.0848821 -0.021301365
000150 46 3d 69 3c c0 6c 28 bd d4 dd 2d bf fe c0 6b 3e
       0.0142358 -0.041119337 -0.6791661 0.2302284
000160 a9 4e c9 3d 1f 41 62 3d ad 0d ab 3e c6 85 15 bf
       0.09829456 0.055237886 0.3340887 -0.5840725
000170 8d ad 19 bf 75 27 bb bd f8 6e 37 3d 70 91 6c be
       -0.6003044 -0.09138385 0.044783562 -0.23102355
000180 44 2e 10 be 74 b8 37 be aa 6a 96 bc ac 93 41 3d
       -0.14080149 -0.17941457 -0.018361408 0.04725997
000190 e2 d9 04 bd 81 c1 8f 3d 8d f4 fd 3e 69 3c 84 3c
       -0.03243435 0.0701933 0.4960064 0.016142087
0001a0 f3 25 9c be 50 ce 88 bc 41 50 06 be c6 40 d9 bc
       -0.30497703 -0.01669994 -0.13116552 -0.026520144
0001b0 35 95 98 bd e9 76 b7 3e d3 0f 0c 3e 02 65 32 bd
       -0.07450334 0.3583291 0.13677911 -0.04355336
0001c0 b9 55 03 3f 03 0d 43 be 21 d7 77 bd 12 61 86 3d
       0.5130268 -0.19047932 -0.060507897 0.065614834
0001d0 25 a0 b6 3d c7 8d 6a bd c2 58 94 3d 20 28 b4 3c
       0.08917264 -0.057264116 0.07243492 0.02199179
0001e0 79 34 0d be c0 7f 9a 3e fa ff 03 be 9b a1 a5 3d
       -0.13789548 0.3017559 -0.12890616 0.080874644
0001f0 ee df 14 3f f4 d8 da bc a4 e2 c1 bb 82 82 91 bd
       0.5815419 -0.02671478 -0.0059169102 -0.071049705
000200 f1 c2 3a bf b5 3b 9d 3d a2 fc ac be c3 3a ad 3c
       -0.72953707 0.07677404 -0.33786494 0.021146184
000210 e4 36 55 3d a2 12 4e bc 35 ef 88 3d f0 10 62 bc
       0.0520543 -0.012577685 0.0668625 -0.0137979835
000220 19 2b c4 be 45 58 98 bf 11 9d ca 3e 93 97 35 3e
       -0.3831413 -1.1901938 0.39572957 0.17733602
000230 b7 d6 b5 be a9 81 cd be be 09 07 bd fa 64 4f 3d
       -0.35515377 -0.40137985 -0.032968275 0.050633408
000240 d4 3b 9f bf c5 9e a1 be 9f e8 3f 3c 15 05 17 be
       -1.2440133 -0.31566444 0.011713176 -0.14748032
000250 43 16 c7 bd cb 87 92 be d7 92 51 bf cd 7b 1e 3a
       -0.09721043 -0.28619227 -0.81864685 0.00060456694
000260 e4 f7 d7 be 1e e8 92 3d 5c 85 8e bc e6 fc 4a bf
       -0.42181313 0.07173179 -0.017397575 -0.7929214
000270 18 60 98 3e 14 b4 f0 3d 3f 70 d6 be 0e f9 87 be
       0.29760814 0.11753097 -0.41882512 -0.265572
000280 8c 54 9e be 32 31 f6 be 4e be 06 3c be d4 46 3d
       -0.3092388 -0.48084408 0.008224083 0.04854273
000290 06 2d 1b bc 4b 72 80 be 45 2a 84 bc ae b9 5c 3d
       -0.009471184 -0.250872 -0.016133437 0.053888015
0002a0 ab a0 dc bd 49 dd 06 3d f8 af c2 be 7b e4 6f 3d
       -0.107728325 0.032925878 -0.38024879 0.058567505
0002b0 17 86 6b be 52 4b e8 3e d7 83 53 bc dd a3 4e bb
       -0.2300037 0.45369965 -0.012909851 -0.0031530776
0002c0 52 95 82 3c 57 e2 b1 be aa 71 8b be 00 f8 b4 bd
       0.015940342 -0.34742996 -0.27235156 -0.08836365
0002d0 d8 ad e2 3f 6c 4c b0 be 96 08 40 bd c6 09 a5 bd
       1.7709303 -0.34433305 -0.04688319 -0.08058505
0002e0 02 b2 9b be 90 d9 07 3e 31 71 af bd ec 70 20 3c
       -0.30409247 0.13266587 -0.085665114 0.009792548
0002f0 7b 23 f7 3e 71 53 85 3c e9 3c aa bd 60 7f e1 3c
       0.48269257 0.01627514 -0.08312399 0.027526557
000300 67 b7 0b bf 8b 88 05 be ef 28 95 be d4 a7 e0 bd
       -0.54576725 -0.13040368 -0.29132792 -0.10969511
000310 ea a5 e5 bc c6 55 1b 3d c5 17 7d 3d 6d 2d ee bc
       -0.028033216 0.037923597 0.061790247 -0.029074395
000320 7c 0b 19 be 2a d9 c7 bf ab 7c c9 3e a8 ae 84 3e
       -0.14945787 -1.5613148 0.39352927 0.25914502
000330 a9 87 42 be f4 c6 bf 3c 10 36 36 bd b7 c9 36 3e
       -0.18997063 0.023410298 -0.04448515 0.17850386
000340 43 d2 c2 bf aa 55 55 be 0f 31 a6 bb 23 12 9d bc
       -1.5220417 -0.2083346 -0.005071766 -0.019173687
000350 af 99 55 bd c4 36 b9 bd c9 e7 1e bf 0a bb 5c 3e
       -0.052148517 -0.09043649 -0.62072426 0.21555725
000360 36 cc 97 bd 69 68 19 3c 9c 84 6f 3e ed ea 34 bf
       -0.07411997 0.009363272 0.2339043 -0.7067097
000370 1a 9c d8 be 01 ae e9 3d ab fe af 3d fa 6e 53 be
       -0.42306596 0.11410142 0.08593496 -0.20647803
000380 76 c8 09 be de fd 96 3d 47 1b d2 bd 70 4d 88 3c
       -0.13455376 0.0737264 -0.10259109 0.016638488
000390 73 82 99 3d ed cb 97 3d 26 d6 95 3e 6e dd 2e 3d
       0.07495584 0.07411943 0.29264945 0.04269164
0003a0 dd 5a 0d be de 35 bd 3d ce b3 93 bc b9 44 bd 3c
       -0.13804193 0.0923879 -0.018030073 0.023104059
0003b0 69 e7 d3 bd 1f 4e b7 3e d8 c0 aa bd b2 95 27 bd
       -0.10346872 0.3580179 -0.08337563 -0.040914245
0003c0 b3 43 c1 3e 61 df 61 be b6 e1 a4 bd f6 7f c1 3d
       0.37746963 -0.22057869 -0.080508634 0.09448235
0003d0 c1 3b df 3e d5 5b 87 bd 43 84 60 3c f6 65 ad bd
       0.43600276 -0.066093124 0.013703409 -0.08466713
0003e0 5d ff 8a bd 3b 99 bb 3e 18 ff 90 3d 97 dd 1f 3d
       -0.06786988 0.36640343 0.07079905 0.039029684
0003f0 0b 9f 00 3e eb 48 91 bd dd b7 1a bb 30 be 9c 3d
       0.1256067 -0.07093986 -0.0023608126 0.07653463

bias f4 [17]
000000 19 4a 71 be 09 df dd bf 63 08 b8 bf 07 f6 07 c0
       -0.23563422 -1.733369 -1.437756 -2.1243913
000010 6c 17 e5 bf 56 82 dc bf e0 5a da bf bd c3 aa bf
       -1.7897773 -1.7227275 -1.7058983 -1.3340985
000020 44 8d b2 bf d6 f6 ba bf 2d 0d 97 bf 09 0c b4 bf
       -1.3949361 -1.4606578 -1.1800896 -1.4066173
000030 1b 1f a9 bf d8 5e b1 bf 17 ed 5e bf 19 2e d2 bf
       -1.3212618 -1.3857069 -0.8708052 -1.6420318
000040 45 2d af bf
       -1.368569

weight f4 [64, 256]
000000 fe 65 fa 3d 8e 7c 32 3e 0b 17 e5 3d e2 1c d9 3d
       0.12226485 0.17430326 0.11186036 0.10601212
000010 dd 86 5f 3e 7f 22 f0 3d 25 d8 63 3e a0 81 16 3e
       0.2182879 0.117253296 0.22250421 0.14697886
000020 ba 07 09 3e 24 98 59 3e 1a b0 30 3e 7f 8c 5d 3e
       0.13381854 0.21249443 0.17254677 0.21635626
000030 a6 6f b9 bd b5 b7 30 3e 89 53 66 be e8 44 fe 3d
       -0.090544984 0.17257579 -0.22492804 0.124154866
000040 e9 9e 65 be 00 79 41 3e 07 7a 48 be 83 1b 84 3e
       -0.224239 0.18893814 -0.195778 0.2580224
000050 7e d1 9a be 3a bd 73 3e fa bc 43 be af 6f 39 3e
       -0.30237955 0.23802653 -0.19115058 0.1810901
000060 03 7b b1 be fd 3c 84 3e 46 d8 17 be 84 b2 38 3e
       -0.34664163 0.2582778 -0.14828596 0.18036848
000070 f8 ce 08 be 04 89 42 3e 70 0a 6b be 8d df 69 3e
       -0.13360202 0.1899758 -0.229532 0.22839184
000080 63 68 94 be 6a 6f 6d 3e 4c 64 04 be d8 f6 0f 3e
       -0.2898589 0.23187032 -0.12928885 0.14059007
000090 6c 8a d0 bd c4 5b fd 3d f8 24 95 bd 00 95 0c 3e
       -0.10182652 0.123710185 -0.07282442 0.13728714
0000a0 41 e7 b5 3b 68 2f 02 bd 3e b2 e8 bd 79 db ca 3d
       0.0055512493 -0.03178349 -0.11362122 0.09905142
0000b0 68 46 be bd f5 61 5e 3d f1 37 66 3c 3b 2f a9 bb
       -0.09290773 0.054292638 0.014051423 -0.005163101
0000c0 ee 8e ee bc bd aa d0 3d 7d 53 0c 3b ec 7c cd 3c
       -0.029120889 0.10188816 0.0021412068 0.025083981
0000d0 ed 21 dd 3c 74 ac 10 3d 28 41 6b 3d 4e 7d c0 3c
       0.026993716 0.035320714 0.057435185 0.02349725
0000e0 eb 06 c9 3d 7e 1f 96 bd 23 46 a9 3c b5 f3 e8 bb
       0.098157726 -0.073302254 0.020663327 -0.0071091303
0000f0 26 85 f6 3b 4e ff 51 bc e8 cd a5 bd e4 b6 8f 3c
       0.0075231967 -0.012817217 -0.08095914 0.017543264
000100 e3 45 c1 bc 59 63 2c bb 0c 80 21 3d 16 9a 81 3c
       -0.023592895 -0.0026304333 0.039428756 0.015820544
000110 00 b5 25 bb b8 5f cc bd 52 0e ed bc 5f b5 54 bc
       -0.0025284886 -0.099791944 -0.028937493 -0.012982695
000120 c8 2c f9 bc 31 ea 87 bc c7 94 47 3d 52 6a 44 bd
       -0.030416861 -0.016591163 0.04872587 -0.047952957
000130 bb 53 8e ba 41 96 7d bc 96 7c 53 bd 49 e9 17 3d
       -0.0010858694 -0.015477718 -0.051632486 0.037087712
000140 99 7d 02 bd 2f cd 14 3d db 89 2f bd 22 18 23 3d
       -0.03185806 0.03632849 -0.04285608 0.039817937
000150 7c 57 05 bc 9c e2 38 3d f4 c5 a9 3b df 6c 28 3d
       -0.008138534 0.045137987 0.0051810686 0.041119453
000160 78 4e 5a bc 11 6c 96 bc 08 09 fe bc 7f 42 b3 3d
       -0.0133243725 -0.018362077 -0.031010166 0.087529175
000170 af 12 f6 bc b9 dc 43 3d 62 fd 27 3d 7e 97 1a bd
       -0.030038206 0.04781792 0.04101313 -0.03774213
000180 42 61 28 3d 37 a4 3c 3d e9 92 4f bc c5 06 4c bd
       0.041108377 0.046055045 -0.012669303 -0.049811143
000190 b4 7b f2 3a 57 80 c3 bd 1f 10 06 3d c1 74 c2 bd
       0.0018500001 -0.09545963 0.032730218 -0.09494925
0001a0 ad 29 1f 3d ab c2 a9 bc bd e3 ef 3d 5f 96 e7 bd
       0.038858104 -0.020722708 0.117133595 -0.11307978
0001b0 d4 e6 7a 3d 20 8f c8 bd 09 a5 79 3d 15 f0 e6 bd
       0.06125529 -0.09792924 0.060948405 -0.11276261
0001c0 c9 0f a2 3d 6e 2b d3 bd d4 5d 11 3d 72 83 ee 3a
       0.07913167 -0.10311018 0.035489872 0.0018197133
0001d0 54 2f 06 3b 0c 4c 5e bd b7 83 df 3d 06 ac d8 3d
       0.0020474987 -0.054271743 0.109137945 0.10579686
0001e0 08 cd 9d 3d 44 c0 dc 3c 8d 81 76 3d 97 ba f3 3d
       0.07705122 0.026947148 0.060182143 0.119008236
0001f0 6d 20 49 3d dc e8 d4 3c 06 f9 ac 3d 5e 67 84 3a
       0.04910319 0.025989942 0.08445935 0.0010101607
000200 10 f9 75 3d e7 24 c9 3d f2 58 0d 3d 29 01 95 3d
       0.060051978 0.09821492 0.034508653 0.07275612
000210 ce 79 a1 bd ce cf 27 bd 3f 02 5c bd 42 36 c9 bd
       -0.078845605 -0.040969662 -0.05371308 -0.09824802
000220 99 14 6c bd b6 82 1a 3c 6b eb 88 bd 73 6c 84 bd
       -0.05763683 0.009430578 -0.066855274 -0.064659975
000230 1b fa 12 bd 7f 09 82 bd 3b 06 25 bd 37 de 8f bd
       -0.03588305 -0.063494675 -0.040289145 -0.07024806
000240 56 22 36 be bb 7d 22 be ce 0f ef bd 97 6a 8a bd
       -0.17786536 -0.15868275 -0.116729364 -0.06758612
000250 e2 c3 10 be 64 e2 05 be 14 f3 d9 bd 10 23 00 be
       -0.14137223 -0.13074642 -0.106420666 -0.12513375
000260 d2 aa 18 be e2 f7 7c bd af 0a c0 bd ca 27 08 be
       -0.14908913 -0.061759837 -0.09377038 -0.13296428
000270 80 26 fc bd 0b 20 89 bd 42 ab 09 be e4 69 8c bd
       -0.12312031 -0.06695565 -0.13444236 -0.068561345
000280 07 48 14 be 18 f3 72 be 93 d4 93 be 06 80 9f be
       -0.14480601 -0.23725545 -0.2887312 -0.31152362
000290 20 9f 2f be 4e 21 18 be 2d d8 c1 bd 9c 01 53 bb
       -0.17150545 -0.14856455 -0.094650604 -0.0032197004
0002a0 0c d4 c6 bd f7 bc fe bc d6 b5 67 bc 9c 28 12 bd
       -0.097084135 -0.031095965 -0.014142474 -0.03568326
0002b0 c5 46 00 be 8b fa 81 bd 1f d3 71 bd 22 e8 40 bd
       -0.12526996 -0.063466154 -0.05903923 -0.04709638
0002c0 26 b2 d2 3d b5 10 7b 3d 68 e5 46 bc 2c b3 29 3d
       0.10287885 0.06129523 -0.012139656 0.041430637
0002d0 8c b1 fa bd 72 5a 03 be 7d 8c 4c be 58 85 e7 bd
       -0.12240896 -0.12827471 -0.19975467 -0.1130473
0002e0 9a f7 16 be c1 02 5d be de d6 3b be 70 58 68 be
       -0.1474289 -0.21583082 -0.18343684 -0.22689986
0002f0 7b f5 81 be 7d ad 3c be 40 35 d9 bd 25 5b c6 bc
       -0.253826 -0.18425556 -0.1060586 -0.024213383
000300 c6 d3 f6 3d 80 f4 a1 3c 3c 88 45 3e bd 69 5f 3e
       0.12052111 0.019769907 0.1929025 0.2181768
000310 3c 75 51 3e 2c 7c 70 3e e4 e4 bf 3e 98 9d b0 3e
       0.20454878 0.23484868 0.37479317 0.34495234
000320 75 30 ca 3e 24 c0 b6 3e 1e ee 97 3e 87 9c 85 3e
       0.39490095 0.35693467 0.29673856 0.26095983
000330 62 b8 63 3d 9a 1b 63 3d 88 0d 53 bc 72 7e 43 3b
       0.055595763 0.055446245 -0.012881644 0.0029830006
000340 e1 af 36 bd e4 32 0b bd ef 91 d4 bd f8 61 16 be
       -0.044601325 -0.03398408 -0.10379397 -0.1468581
000350 06 24 16 bd 57 a5 91 3c e6 fe 4d 3e db 0c 34 3e
       -0.03665545 0.017779035 0.20116767 0.17583029
000360 a3 81 3e bc f7 9a 52 bc e9 24 f1 3c 9c e3 1e bd
       -0.0116275875 -0.012854329 0.029436545 -0.038791284
000370 de ce 83 bd 01 a7 77 bc 42 49 15 3e 2c 86 56 bd
       -0.06435941 -0.0151155 0.14578727 -0.05237405
000380 16 10 cd 3d 79 10 56 be dc 46 a7 3e d0 b3 a4 be
       0.10012834 -0.20904721 0.3267125 -0.32168436
000390 92 0a 66 3e 45 dd 2b be e9 21 50 3d ab 47 c5 bd
       0.2246497 -0.16783626 0.05081359 -0.0963281
0003a0 17 4a 89 3c 9f fe 68 bd 49 33 3e be 0e 56 2d bf
       0.016758962 -0.05688345 -0.18574251 -0.67709434
0003b0 9c 15 e5 3d fc 1f 38 3f b3 04 f3 be 9c e2 1b be
       0.11185762 0.71923804 -0.47464523 -0.15223163
0003c0 05 15 c6 bd 00 1c e0 bc 9c 1d 41 be db 28 99 be
       -0.09671978 -0.027357101 -0.18858951 -0.29913983
0003d0 bd ee 36 bf ab 0c 1e bf 32 84 0d bf 6e 4b 2d be
       -0.71458036 -0.6173808 -0.5527984 -0.16923305
0003e0 70 9c 9d bd ab fc 39 bf 52 ec ce be 60 a1 95 be
       -0.07695854 -0.72651166 -0.40414673 -0.29224682
0003f0 00 39 90 be b8 e9 57 be e5 59 ea bc 6c 5a 05 be
       -0.28168488 -0.2108525 -0.028607318 -0.13022774

bias f4 [64]
000000 d2 68 28 3e e5 ee c0 bc 99 d2 31 3f 18 e9 24 b7
       0.16446236 -0.023551414 0.6946197 -9.829433e-06
000010 2b f4 3e bd 01 0b 60 3c 12 55 08 3d 41 11 24 3d
       -0.046619575 0.013674499 0.033284254 0.040055517
000020 14 1c ab 3c 88 0e 9a 3c ef 3a 75 3b ed f5 29 bd
       0.020887412 0.018805757 0.003741916 -0.0414943
000030 13 d3 98 bd fd c4 3f bd a0 8e 82 bd 51 d5 80 3e
       -0.07462134 -0.046818722 -0.0637486 0.25162748
000040 eb 27 39 3d b1 76 b1 bd eb 6f 25 3d a1 ac ea 3c
       0.045204084 -0.08665217 0.040389936 0.028646769
000050 96 ad 14 3e c6 21 58 bd 5f 28 e6 3c fe 77 95 3b
       0.14519343 -0.052766584 0.028095422 0.0045614233
000060 c2 b5 ae 3b 07 45 74 3e 4d 52 95 bc 70 57 a6 bd
       0.005331726 0.23854457 -0.01822772 -0.08122146
000070 37 e2 70 bd 63 96 bf 3b a5 31 58 3d d5 38 58 3c
       -0.058809485 0.005846785 0.05278172 0.013197144
000080 1c 39 24 bd 15 35 48 bd 54 d3 8c bb ed 26 0b 3f
       -0.040093526 -0.048878748 -0.004297653 0.5435627
000090 bd 54 e0 3e f6 ac 4c bc f2 b6 97 bc 24 2a 82 bd
       0.4381465 -0.012492409 -0.018519852 -0.06355694
0000a0 75 4a 11 bd 62 36 30 bd f8 68 12 3e 80 2d b0 3d
       -0.0354714 -0.043020613 0.14297855 0.086024284
0000b0 14 c4 08 3d 6e 36 52 3e 40 96 83 bd a8 a8 f5 bd
       0.03339012 0.20528576 -0.06425142 -0.11995059
0000c0 11 dc b7 3c 71 85 8d 3e b8 53 a4 bd 30 54 1b bd
       0.022443803 0.2764087 -0.080237806 -0.037922084
0000d0 32 cc 86 bd 97 9d 31 3e 85 a2 f9 b7 f3 0b b3 bd
       -0.06581916 0.17345272 -2.9758792e-05 -0.087425135
0000e0 c4 0a 03 bc d5 2e bf bd c1 82 cf 3f e4 63 1a bd
       -0.007998172 -0.093351044 1.6211778 -0.03769292
0000f0 84 5c f2 3d 39 0d 8c bc fd 33 cf 3a fe bc b9 bd
       0.11834052 -0.017096149 0.001580834 -0.090692505

weight f4 [64, 64]
000000 c2 16 3e be c0 2b 8b 3c 04 2d 6a be 6e 7d 1a bc
       -0.18563369 0.016988635 -0.22868735 -0.009429319
000010 9d ef 52 bd d0 91 b4 3c b0 a1 57 bd 20 4d 48 bc
       -0.051498044 0.022042185 -0.05264443 -0.012225419
000020 34 c2 12 bd dd 79 8e bd 71 b5 7b 3c 37 e7 4d 3d
       -0.035829738 -0.06956837 0.015363083 0.05026933
000030 18 93 4b 3d 30 a9 02 be 4a 08 0e bd cb 67 90 bd
       0.049700826 -0.12759852 -0.034675874 -0.07051047
000040 58 cd 61 3e 12 b4 84 3d f0 dd ba bd 2c ac e0 bd
       0.22050989 0.06479658 -0.091243625 -0.10970339
000050 1f 2d 50 3d 51 6a b7 3d ee d5 b3 bb 44 58 12 bd
       0.05082428 0.08955825 -0.005488149 -0.035728708
000060 88 6e bf bd a6 46 71 bd ff eb ca bd 33 2e e6 bd
       -0.09347254 -0.058905266 -0.09908294 -0.112392806
000070 85 6e 85 3d bf e9 74 bc 35 47 8a 3d 34 86 e9 bd
       0.065152206 -0.014948308 0.06751863 -0.1140255
000080 c4 ff 91 3d 75 4a 85 3d 92 2d 8a 3d d0 3d 44 be
       0.071288615 0.06508342 0.06746973 -0.19164205
000090 9d be b4 3d 40 f9 1b 3c 94 ef ba bc 88 09 c2 bc
       0.08825419 0.009519875 -0.022819318 -0.023686185
0000a0 6c 98 3f bd 20 14 14 bd e9 ea 97 3c 29 87 02 3e
       -0.04677622 -0.036152005 0.018544631 0.12746872
0000b0 18 5c 79 3d c8 44 c8 bd 71 72 04 be c7 1f 60 bd
       0.060878843 -0.09778744 -0.12934281 -0.054717805
0000c0 3c f8 0c 3d 28 21 8c bd 82 31 d0 bc 8e f7 e5 3d
       0.034416422 -0.068422616 -0.025414232 0.11228858
0000d0 64 96 8f 3d 87 2b 80 be 38 49 94 3d 53 1d b6 bd
       0.070111066 -0.2503321 0.07240528 -0.08892312
0000e0 39 77 2f bd 08 bb a4 bd 84 49 b3 bd 6b 78 13 3d
       -0.04283831 -0.08043486 -0.08754256 0.03600351
0000f0 54 af 65 bd a4 12 3e bd a9 d3 d2 bd 57 de da bd
       -0.05607541 -0.046404496 -0.10294277 -0.10686939
000100 cc e8 7a 3d 79 88 ef bd 85 76 a5 bd 51 46 d1 bd
       0.06125717 -0.11695952 -0.080792464 -0.1021849
000110 00 1d a1 3d 82 8c f2 3c 18 38 c5 bd 26 25 7d 3d
       0.078668594 0.029608015 -0.0962984 0.061803006
000120 05 e7 2a 3d e1 b1 d4 3d e0 2a c0 3c 56 58 13 3d
       0.041724224 0.1038549 0.023457944 0.035972916
000130 93 ca 43 3c ca 1f cf 3d a7 4e 68 bd ec 1a bc bd
       0.011950153 0.10113485 -0.056715634 -0.091848224
000140 5a 27 da bd 0b 8f 84 bd 56 bb 13 bd 60 59 44 3d
       -0.10652037 -0.06472596 -0.03606733 0.047936797
000150 22 37 b7 bd 89 be 1c bd b3 a9 aa bd 35 75 31 3c
       -0.089460626 -0.038267646 -0.08333149 0.010831167
000160 78 6b 88 bd b2 07 c7 3d 03 22 88 bd ce 71 ac b9
       -0.06661123 0.09718265 -0.06647112 -0.00032891188
000170 0a 5f 78 bd de 89 ce bd 22 87 78 3c 7a 8c 15 3d
       -0.06063751 -0.1008489 0.015168937 0.036510922
000180 06 c2 83 bd 7b 1a 53 bd 9e 7b 28 bd 51 1f 08 be
       -0.064334914 -0.051538926 -0.041133516 -0.13293196
000190 dd 90 a8 bc f3 f4 db 3c 7c a1 7d 3d 6c 83 82 3d
       -0.020576889 0.0268502 0.06192158 0.06372723
0001a0 61 7b aa bd 5e e5 c9 3c e3 5a ac 3d ad d5 6a 3d
       -0.08324314 0.024645504 0.08415773 0.057332683
0001b0 59 83 9f 3d 7f 7c c5 bd e0 3d dd 3d e4 e4 99 3d
       0.077887245 -0.09642886 0.10802817 0.075143605
0001c0 28 4e 3d bd d7 52 69 bd cf ea 9e 3a 32 d1 d2 bc
       -0.046217114 -0.056963768 0.0012124422 -0.025734518
0001d0 c6 eb dd bc de 56 f1 bc 33 ee 9e 3d f8 5c 01 3e
       -0.027089965 -0.029460367 0.07760277 0.12633121
0001e0 85 66 09 3d 33 e9 cd 3d 51 f4 13 be c7 65 e7 3d
       0.033545036 0.10054245 -0.14448668 0.11298709
0001f0 21 f2 0c 3d 6f 86 02 3e 86 e0 7a 3c 2c 34 ec 3c
       0.0344106 0.12746595 0.01531232 0.028833471
000200 f2 24 10 3d 5e 89 e5 3d a3 53 10 3d 0b c5 84 3d
       0.035191484 0.11207841 0.035236012 0.064828955
000210 a9 7c 17 bd 7a 2a db bd 80 eb ca 3c d0 a3 bb bc
       -0.03698412 -0.10701461 0.024770498 -0.02290526
000220 6f c9 90 39 a1 60 a6 bd 1f 23 c3 3c 55 20 d1 bd
       0.000276159 -0.08123899 0.023820458 -0.10211245
000230 34 86 4d bd 72 21 35 3d db 19 4c 3d 82 32 0e 3d
       -0.050176814 0.04422135 0.049829345 0.034716137
000240 0e aa a2 3d 6f e8 bb bd a2 5c 0e bd 2c 2c 46 bd
       0.079425916 -0.091751926 -0.03475631 -0.04838197
000250 b5 b8 f6 bd 0d 40 9d 3b 41 31 bd bd 83 71 b5 bd
       -0.12046949 0.004798895 -0.0923791 -0.08859541
000260 9d c5 91 3c 4b 4b 67 3d ee c4 a3 bd de 64 8f bd
       0.017794425 0.05646829 -0.07996546 -0.07001661
000270 56 ee 50 bd 7f 07 42 3d d5 4e 0d be 35 15 d3 3d
       -0.051008545 0.04737043 -0.13799603 0.10306779
000280 d3 2c a3 bd 9e 25 67 bc 40 fa a7 3d 5e b2 a8 bd
       -0.07967534 -0.01410809 0.08202028 -0.08237146
000290 1f c6 b4 bb b1 dc 89 bd 05 39 a9 3d c4 cf 83 3d
       -0.005516782 -0.06731547 0.08262829 0.064361125
0002a0 3e c2 ae 3d 6c da 49 bd 24 17 b9 bc 7c f8 fe 3c
       0.085331425 -0.04928057 -0.022594042 0.031124346
0002b0 9e 00 a2 3c ff f9 d5 bd f5 5e d3 bd 52 5b 3a 3b
       0.019775685 -0.104480736 -0.10320846 0.0028435779
0002c0 34 04 e5 bd 57 a6 83 bd 58 02 eb bc f9 8b ae 3d
       -0.11182442 -0.06428211 -0.028687641 0.085227914
0002d0 43 d9 ea 3d f8 a6 85 39 54 8d ad 3c 21 14 00 be
       0.11467221 0.00025492138 0.021185555 -0.12507679
0002e0 f3 69 03 3e a9 2d cd 3d 11 5f 31 be ca 93 30 bc
       0.12833385 0.100184746 -0.17321421 -0.010777423
0002f0 01 df 85 bc c2 26 97 bd 3f a0 db 3c 5c 47 57 bc
       -0.016341688 -0.07380439 0.02680981 -0.013139572
000300 44 e3 93 bd 9c 34 a4 bd 36 8e 69 bd 87 ac b6 bd
       -0.07221082 -0.08017847 -0.05702039 -0.08919626
000310 6e 5d cb ba 45 73 b2 bd a2 fd 8c bd d0 2b 6f 3c
       -0.0015515515 -0.08713392 -0.06884314 0.014597848
000320 9f 97 92 3d 04 12 26 3d ca a2 b4 bd a1 e6 f0 bc
       0.07157826 0.040544525 -0.08820112 -0.029406847
000330 7f 18 bc 3d 9f 08 e1 bd f4 24 c4 3d 6b 1a 03 be
       0.0918436 -0.109879725 0.09577361 -0.12803046
000340 9b 03 b6 3d b5 8d e4 bc a5 33 e8 3d 53 85 b8 3c
       0.088874064 -0.027899602 0.113379754 0.022524511
000350 e1 5d 3d 3c e0 82 cb bb f4 37 d5 bd 51 db ab 3d
       0.011558027 -0.00621067 -0.10411063 0.08391441
000360 fe 62 40 3c b9 33 bc bd c3 c8 f7 ba fb 8e 48 3d
       0.011742352 -0.09189553 -0.0018904436 0.04896448
000370 1a 52 ed bc 52 1c eb 3d 2d 35 c7 bd 6e bb 85 3d
       -0.028969813 0.11480011 -0.09726939 0.0652989
000380 3e af 7f bd 1c 1d de bd 0b 7c 22 ba ca a8 2a bd
       -0.062422983 -0.10845396 -0.00061982934 -0.041664876
000390 10 0f 4c bd 1b 16 95 bc c4 b3 58 bd 38 f1 bd bc
       -0.049819052 -0.018199017 -0.052905813 -0.023186311
0003a0 5d 5c c8 bd c4 dc 85 3c b8 3c 43 bc 06 75 e3 bd
       -0.09783242 0.01634062 -0.011916332 -0.11106305
0003b0 bf b7 d6 bd ab 36 c3 bd c0 28 13 bd 29 c4 8c 3d
       -0.104842655 -0.095319115 -0.035927534 0.06873352
0003c0 dc 45 ae 3b 72 4f fc 3c c9 c9 6b 3b df 4a 1a bc
       0.0053183865 0.030799601 0.0035978428 -0.009417265
0003d0 03 39 43 3c cd 5c 21 be d8 21 f0 3d cf 57 25 bd
       0.011915448 -0.15758057 0.11725205 -0.040366944
0003e0 8f 8a ae bd 62 f2 7d 3d d4 4c 0c be 15 f3 c5 3d
       -0.08522522 0.061998732 -0.13701183 0.09665505
0003f0 5d f7 9d 3d da e2 ab 3d 62 74 69 3d 07 db c4 3b
       0.077131964 0.08392878 0.056995757 0.0060075554

bias f4 [64]
000000 54 2a a2 3e 98 df 12 be bb 01 0a be 6d 7a a5 3d
       0.3167292 -0.14343107 -0.13477223 0.080799915
000010 cb b8 92 bd c7 47 32 40 6a aa 1a bd 27 48 01 bd
       -0.07164153 2.785631 -0.037760176 -0.03156295
000020 4c a2 18 be d7 ba 95 3d 30 ee 17 be e2 5f 10 be
       -0.14905661 0.073110275 -0.14836955 -0.14099076
000030 d0 30 15 be 2f 38 30 be c7 ce a2 3f e0 50 91 3f
       -0.14569402 -0.17208932 1.2719353 1.1352806
000040 43 36 0e be 58 41 53 3e 19 e4 61 be 50 d1 d0 3a
       -0.13887887 0.20630395 -0.22059669 0.0015931521
000050 0a 00 a5 bd 49 cf 06 bc d7 a0 2e 40 99 02 79 3f
       -0.08056648 -0.008228132 2.728567 0.9726959
000060 66 99 31 be 87 94 90 3a f9 e5 99 bd ca 95 9b 3d
       -0.17343673 0.0011030593 -0.07514567 0.07596929
000070 d0 fe 29 bb f1 e3 63 bc 59 7b 6c 3c 4a 92 81 3c
       -0.0025939234 -0.013909326 0.014433705 0.015816826
000080 af b2 ac 3c 46 28 d0 3f b0 a0 96 bd e1 9c c1 3f
       0.021081297 1.626229 -0.073548675 1.5126001
000090 6b 4e da bd 4c fa 02 be 8e 2a ae 3f 9c 95 3d ba
       -0.10659488 -0.12790793 1.3606737 -0.00072320714
0000a0 e0 ba 40 be 40 f3 2a be f1 92 4f be 92 41 00 be
       -0.18821287 -0.16694355 -0.20270897 -0.12525013
0000b0 17 d1 2e 40 9d 78 04 3d c1 f7 e7 3b 7b 68 7c bd
       2.7315118 0.03234159 0.007079095 -0.061623078
0000c0 85 9c 9f bd 7f ae 45 bd 86 ae 71 be d7 6c 9d bd
       -0.077935256 -0.048262116 -0.23601732 -0.07686775
0000d0 49 85 8e 3f 53 0c 91 bd 32 55 52 bd 15 62 b7 bd
       1.1134425 -0.07082429 -0.05135078 -0.089542545
0000e0 0b 20 77 be 73 80 5d be 72 a6 ca 40 c2 32 62 bc
       -0.24133317 -0.2163103 6.332818 -0.013806047
0000f0 0c 72 b6 3f 02 d3 21 be 16 35 24 bb 23 e2 53 bd
       1.4253554 -0.1580315 -0.0025056056 -0.051729333

weight f4 [17, 64]
000000 b2 2c 04 bd 04 29 95 bd 15 22 5e 3d 26 ab a9 3b
       -0.032269187 -0.07283214 0.054231722 0.005177873
000010 dd fc 44 bc 75 b5 df be 45 22 09 bd 4d e1 89 3d
       -0.012023178 -0.43693128 -0.033479948 0.06732426
000020 78 be f5 3b 5c 16 cb bd 0c 2d 2d bd e9 64 43 bd
       0.0074995123 -0.09916374 -0.04227929 -0.047703657
000030 41 cd 09 3e 05 8c 6b 3c 73 24 a1 bf 00 e7 5c be
       0.13457204 0.014376645 -1.2589248 -0.21572495
000040 bf 2d 18 bd 23 cc 7d bd 19 0a 4b 3d 44 30 8c 3d
       -0.037153002 -0.061962258 0.049570177 0.068451434
000050 00 cd c8 ba dd 79 78 3d 43 c2 35 be 0f 5e 48 be
       -0.0015319884 0.060663093 -0.17749886 -0.1956713
000060 1c 23 c4 bb e8 6a a8 3d 68 c8 e2 bc ac 1a 04 bd
       -0.0059856307 0.08223516 -0.027683452 -0.032252
000070 34 b3 0e bc de 5d 9d bc 0f e4 f2 bb 00 47 1f bc
       -0.008709718 -0.019209798 -0.0074124406 -0.009721518
000080 6e 14 6c bd 11 42 a3 bf 6c 27 b6 3b 04 b7 a0 bf
       -0.05763667 -1.2754537 0.0055588987 -1.2555852
000090 50 76 4b 3d 93 f3 19 bd 9a 3e 49 bf 33 bc a4 3d
       0.04967338 -0.037585806 -0.7861115 0.08043709
0000a0 07 72 65 3d f6 37 c2 bd d7 0a 53 bd a0 16 d0 bd
       0.056016948 -0.0948333 -0.05152401 -0.101605654
0000b0 dd 70 6b be f3 0c 17 bc 82 72 dc 3d 60 51 1e be
       -0.22992273 -0.009219396 0.10764028 -0.1546073
0000c0 8a d5 c7 3d 83 4a 22 3d 18 14 ac bc 6c a0 ee 3d
       0.09757526 0.03962184 -0.021005675 0.11651692
0000d0 31 cc 99 bf b5 8b ac bb a7 33 03 3d 8b 18 2e bd
       -1.2015439 -0.005265678 0.03203168 -0.042503875
0000e0 8d 19 a1 bb b8 3a 8a 3d 51 8e ab bf ec 06 79 3d
       -0.004916376 0.06749481 -1.3402807 0.060797617
0000f0 9c 5f 56 bf f6 b4 ec 3d 7c e5 75 3c 79 57 19 3e
       -0.8373964 0.11557953 0.015008327 0.14974774
000100 bf 62 fe 3d 8a ef 20 3d db c7 38 3b 4e 2c da 3c
       0.12421178 0.039290942 0.0028195295 0.026632454
000110 4a d5 d0 bd fd 9d 86 bd 35 44 df 3b db 5a 83 3d
       -0.10196932 -0.065731026 0.006813551 0.06413814
000120 d2 d0 59 bc 12 3d 92 3c dc dd d4 3c f2 22 54 3d
       -0.013294416 0.017851386 0.025984697 0.05179114
000130 73 26 04 3d f4 ad 0f bc c0 48 a0 bd eb b7 6d be
       0.03226323 -0.008769501 -0.07826376 -0.2321469
000140 41 08 76 bd 86 0c 92 bd f2 08 85 bd eb 80 b2 ba
       -0.060066465 -0.07131295 -0.06495847 -0.0013618743
000150 a9 29 9d 3d 3c 50 98 3c 6c d4 c6 bd fe d1 8a bd
       0.07673962 0.018592946 -0.09708485 -0.06778334
000160 8a 23 5b 3d 22 7d 18 3d 33 4c cf bd 60 01 27 bc
       0.05350069 0.03722871 -0.10121956 -0.010193199
000170 74 78 46 3d 31 71 ed bd 2f 2b f6 bb 58 b7 03 3d
       0.048454717 -0.11593855 -0.007512472 0.032157272
000180 87 45 1b be ca 74 22 be 2f a1 3e 3d e0 ac 37 be
       -0.15163241 -0.15864864 0.046540435 -0.1793704
000190 62 af 70 bd 9c 48 02 3d a2 ad 8f bc a6 d3 0e 3c
       -0.058761008 0.031807527 -0.01753885 0.008717453
0001a0 ac aa 41 bc 6c 70 a5 bd 5e 5f e3 bb d2 15 ea bd
       -0.0118204765 -0.080780834 -0.006938859 -0.11429943
0001b0 29 41 56 3e 1a e1 b6 bb e5 fa a9 3d 74 ef a3 3d
       0.20923294 -0.0055810334 0.082998075 0.080046564
0001c0 5a 1f bc 3d 8d f9 45 3d 33 df 7f 3d 65 83 40 ba
       0.09185667 0.048333693 0.06246872 -0.0007343798
0001d0 50 f6 75 bd e4 b8 26 bd 9a 73 e6 3c 8e 7a ee bd
       -0.060049355 -0.04070367 0.028131295 -0.11644469
0001e0 b6 d6 db bc d2 29 2b bd ec 72 97 bf 7b 3a 53 3d
       -0.02683578 -0.04178793 -1.1831946 0.051569443
0001f0 40 56 af bd 56 32 b7 bd 4f dd 6f 3d 46 50 c9 bd
       -0.08561373 -0.08945148 0.058560666 -0.09829764
000200 e2 eb b9 3d e9 65 6a 3d 89 28 9d 3d bd 7a ed bc
       0.09078194 0.057226095 0.07673747 -0.02898919
000210 48 18 05 3c f0 45 29 bf 9c d9 ae 3d c1 32 e7 3c
       0.008123465 -0.6612234 0.085375994 0.028222444
000220 41 11 4e 3d 02 51 86 3d 81 12 42 be 85 b5 1e 3c
       0.050309423 0.0655842 -0.18952371 0.009686832
000230 07 2c 1e 3d c5 7e 4f 3d 3f 77 96 be 53 f1 86 be
       0.038616206 0.050658006 -0.29387853 -0.2635599
000240 88 c7 a3 bc a2 12 12 bd 35 55 58 bc bf 7d a3 bd
       -0.019992605 -0.0356623 -0.013203909 -0.079829685
000250 cf 78 b2 bd 29 41 6e 3b e5 86 d4 be 4b fc 5e bd
       -0.08714449 0.0036354756 -0.41509166 -0.054439824
000260 a3 da 8f bd 71 8c f4 bb 9b 25 9d bd 76 08 cb bd
       -0.070241235 -0.007463031 -0.07673188 -0.09913723
000270 4e bb 57 bd 1b 9e ef 3d 2b 78 ff 3d 18 4b 73 3d
       -0.052668862 0.11700078 0.12474092 0.059397787
000280 72 b7 e6 3d 2d 62 bd be 15 5d 0e 3d b8 68 ca be
       0.11265458 -0.36988965 0.03475674 -0.3953302
000290 24 4c 1d bd 25 82 62 bd 7e 47 3c be e6 b0 67 bc
       -0.03840269 -0.055299897 -0.18386647 -0.014141297
0002a0 c4 ac 0e bd e5 bd 25 3d 51 9c 41 3d cc f3 47 bd
       -0.03483273 0.0404643 0.047268216 -0.048816487
0002b0 76 18 13 bf c9 5f ad 3d a2 61 4e 3d eb d4 86 3d
       -0.574592 0.08465535 0.05038608 0.0658358
0002c0 51 bf e4 3d 72 55 93 bd 55 7a e5 bb 91 b5 ad bd
       0.11169303 -0.07194032 -0.0070031085 -0.08481897
0002d0 47 9f 87 be 4b 4a aa 3d 58 40 67 bd d7 9e 1e 3d
       -0.26488706 0.083149515 -0.056457847 0.0387257
0002e0 8e 3d ca bc bf 70 b4 bc 33 40 9d bf 14 2c c0 bd
       -0.024687555 -0.022026418 -1.2285217 -0.09383407
0002f0 5f e0 8f be be 59 df 3c 5a 64 84 bc 5a 95 66 bd
       -0.2810087 0.027264472 -0.016161133 -0.056294776
000300 22 b4 2d 3d 09 be ae bd 2f f4 bc bd 1b f0 84 3d
       0.042408116 -0.0853234 -0.09226262 0.06491109
000310 92 db 06 3d 09 73 19 bd 0e ce 81 bd 71 0b a9 bd
       0.032924242 -0.03746322 -0.0633813 -0.082541354
000320 0d a9 a0 3c d9 78 e7 bc 2a dd 75 3d bc b8 91 bd
       0.01961186 -0.028255867 0.06002537 -0.071153134
000330 ef e8 88 3d c9 c7 a8 bd 59 6c a5 be 19 88 69 be
       0.066850536 -0.08241231 -0.32309225 -0.22805823
000340 a7 30 87 bd f4 06 aa bd 85 1e bb bd 56 ea aa 3d
       -0.066010766 -0.083021075 -0.091366805 0.08345477
000350 b9 91 93 bb a3 ac de ba 12 69 49 bd 8c d4 7f bd
       -0.0045034555 -0.0016988706 -0.04917247 -0.06245856
000360 47 f7 8e 3d 01 c8 12 bd 7a 34 42 3c 2c 68 79 bd
       0.06980758 -0.03583527 0.011853332 -0.06089036
000370 a1 ae b3 bd 88 fd 87 3d 9d 4f 08 be 83 3d 32 3c
       -0.08773542 0.06640154 -0.1331162 0.010878923
000380 cb 93 4a 3d 5b 36 b5 be 33 b1 04 3d ea 66 ba be
       0.049457353 -0.35393032 0.032395553 -0.36406642
000390 1a 26 e2 3d 2d 50 85 3d 6a 7d af 3d 87 ed d8 3d
       0.110424235 0.06509433 0.08568843 0.1059218
0003a0 67 e3 eb bd 6f 8e dc bc 99 50 69 3d fc a0 60 3d
       -0.11517983 -0.026923386 0.05696163 0.054841027
0003b0 d7 88 01 3e a3 9b 24 3d c0 ea 11 bb 00 1d 92 3c
       0.12649857 0.04018749 -0.0022265166 0.017836094
0003c0 49 bd 9d 3d a6 3b a8 3d 59 33 6c 3d d0 a8 fd bb
       0.07702119 0.08214502 0.057666156 -0.0077410713
0003d0 fb 35 78 be 59 34 1f 3d ff 9c ef bd c4 12 88 3d
       -0.24239342 0.038868282 -0.116998665 0.06644204
0003e0 c4 45 23 3e bf b6 f9 bd f9 7c 93 bf 34 a5 1c bc
       0.15944582 -0.12193059 -1.1522514 -0.009560872
0003f0 e4 58 0f be 4e c6 e0 bc 57 92 fc 3c 5a 6c 1f bd
       -0.13998753 -0.027438309 0.030831499 -0.03892169
